…
2026-04-16 17:27:19 - realchords - INFO - Time taken to load dataset: 0.03 seconds
2026-04-16 17:27:19 - realchords - INFO - Loaded 2821 chord names from data/cache/chord_names_augmented.json
2026-04-16 17:27:19 - realchords - INFO - Loaded 101 items
  nottingham: 101 items (0.0s)
Using deterministic weighted interleaving for eval (no sampler).

Weighted joint dataset created:
   Total items: 2,134
   Sampling weights: {'hooktheory': 0.6, 'pop909': 0.3, 'nottingham': 0.1}
Note: 'shuffle' is ignored for train since a sampler is used.
DecoderSingleAgentActor(
  (model): DecoderTransformer(
    (decoder): TransformerWrapper(
      (token_emb): TokenEmbedding(
        (emb): Embedding(5902, 512)
      )
      (post_emb_norm): Identity()
      (emb_dropout): Dropout(p=0.0, inplace=False)
      (project_emb): Identity()
      (attn_layers): Decoder(
        (layers): ModuleList(
          (0): ModuleList(
            (0): ModuleList(
              (0): SimpleRMSNorm()
              (1-2): 2 x None
            )
            (1): Attention(
              (to_q): Linear(in_features=512, out_features=512, bias=False)
              (to_k): Linear(in_features=512, out_features=512, bias=False)
              (to_v): Linear(in_features=512, out_features=512, bias=False)
              (split_q_heads): Rearrange('b n (h d) -> b h n d', h=8)
              (split_k_heads): Rearrange('b n (h d) -> b h n d', d=64)
              (split_v_heads): Rearrange('b n (h d) -> b h n d', d=64)
              (merge_heads): Rearrange('b h n d -> b n (h d)')
              (attend): Attend(
                (attn_dropout): Dropout(p=0.0, inplace=False)
              )
              (to_out): Linear(in_features=512, out_features=512, bias=False)
            )
            (2): Residual()
          )
          (1): ModuleList(
            (0): ModuleList(
              (0): SimpleRMSNorm()
              (1-2): 2 x None
            )
            (1): FeedForward(
              (ff): Sequential(
                (0): GLU(
                  (act): SiLU()
                  (proj): Linear(in_features=512, out_features=4096, bias=True)
                )
                (1): Dropout(p=0.0, inplace=False)
                (2): Linear(in_features=2048, out_features=512, bias=True)
              )
            )
            (2): Residual()
          )
          (2): ModuleList(
            (0): ModuleList(
              (0): SimpleRMSNorm()
              (1-2): 2 x None
            )
            (1): Attention(
              (to_q): Linear(in_features=512, out_features=512, bias=False)
              (to_k): Linear(in_features=512, out_features=512, bias=False)
              (to_v): Linear(in_features=512, out_features=512, bias=False)
              (split_q_heads): Rearrange('b n (h d) -> b h n d', h=8)
              (split_k_heads): Rearrange('b n (h d) -> b h n d', d=64)
              (split_v_heads): Rearrange('b n (h d) -> b h n d', d=64)
              (merge_heads): Rearrange('b h n d -> b n (h d)')
              (attend): Attend(
                (attn_dropout): Dropout(p=0.0, inplace=False)
              )
              (to_out): Linear(in_features=512, out_features=512, bias=False)
            )
            (2): Residual()
          )
          (3): ModuleList(
            (0): ModuleList(
              (0): SimpleRMSNorm()
              (1-2): 2 x None
            )
            (1): FeedForward(
              (ff): Sequential(
                (0): GLU(
                  (act): SiLU()
                  (proj): Linear(in_features=512, out_features=4096, bias=True)
                )
                (1): Dropout(p=0.0, inplace=False)
                (2): Linear(in_features=2048, out_features=512, bias=True)
              )
            )
            (2): Residual()
          )
          (4): ModuleList(
            (0): ModuleList(
              (0): SimpleRMSNorm()
              (1-2): 2 x None
            )
            (1): Attention(
              (to_q): Linear(in_features=512, out_features=512, bias=False)
              (to_k): Linear(in_features=512, out_features=512, bias=False)
              (to_v): Linear(in_features=512, out_features=512, bias=False)
              (split_q_heads): Rearrange('b n (h d) -> b h n d', h=8)
              (split_k_heads): Rearrange('b n (h d) -> b h n d', d=64)
              (split_v_heads): Rearrange('b n (h d) -> b h n d', d=64)
              (merge_heads): Rearrange('b h n d -> b n (h d)')
              (attend): Attend(
                (attn_dropout): Dropout(p=0.0, inplace=False)
              )
              (to_out): Linear(in_features=512, out_features=512, bias=False)
            )
            (2): Residual()
          )
          (5): ModuleList(
            (0): ModuleList(
              (0): SimpleRMSNorm()
              (1-2): 2 x None
            )
            (1): FeedForward(
              (ff): Sequential(
                (0): GLU(
                  (act): SiLU()
                  (proj): Linear(in_features=512, out_features=4096, bias=True)
                )
                (1): Dropout(p=0.0, inplace=False)
                (2): Linear(in_features=2048, out_features=512, bias=True)
              )
            )
            (2): Residual()
          )
          (6): ModuleList(
            (0): ModuleList(
              (0): SimpleRMSNorm()
              (1-2): 2 x None
            )
            (1): Attention(
              (to_q): Linear(in_features=512, out_features=512, bias=False)
              (to_k): Linear(in_features=512, out_features=512, bias=False)
              (to_v): Linear(in_features=512, out_features=512, bias=False)
              (split_q_heads): Rearrange('b n (h d) -> b h n d', h=8)
              (split_k_heads): Rearrange('b n (h d) -> b h n d', d=64)
              (split_v_heads): Rearrange('b n (h d) -> b h n d', d=64)
              (merge_heads): Rearrange('b h n d -> b n (h d)')
              (attend): Attend(
                (attn_dropout): Dropout(p=0.0, inplace=False)
              )
              (to_out): Linear(in_features=512, out_features=512, bias=False)
            )
            (2): Residual()
          )
          (7): ModuleList(
            (0): ModuleList(
              (0): SimpleRMSNorm()
              (1-2): 2 x None
            )
            (1): FeedForward(
              (ff): Sequential(
                (0): GLU(
                  (act): SiLU()
                  (proj): Linear(in_features=512, out_features=4096, bias=True)
                )
                (1): Dropout(p=0.0, inplace=False)
                (2): Linear(in_features=2048, out_features=512, bias=True)
              )
            )
            (2): Residual()
          )
          (8): ModuleList(
            (0): ModuleList(
              (0): SimpleRMSNorm()
              (1-2): 2 x None
            )
            (1): Attention(
              (to_q): Linear(in_features=512, out_features=512, bias=False)
              (to_k): Linear(in_features=512, out_features=512, bias=False)
              (to_v): Linear(in_features=512, out_features=512, bias=False)
              (split_q_heads): Rearrange('b n (h d) -> b h n d', h=8)
              (split_k_heads): Rearrange('b n (h d) -> b h n d', d=64)
              (split_v_heads): Rearrange('b n (h d) -> b h n d', d=64)
              (merge_heads): Rearrange('b h n d -> b n (h d)')
              (attend): Attend(
                (attn_dropout): Dropout(p=0.0, inplace=False)
              )
              (to_out): Linear(in_features=512, out_features=512, bias=False)
            )
            (2): Residual()
          )
          (9): ModuleList(
            (0): ModuleList(
              (0): SimpleRMSNorm()
              (1-2): 2 x None
            )
            (1): FeedForward(
              (ff): Sequential(
                (0): GLU(
                  (act): SiLU()
                  (proj): Linear(in_features=512, out_features=4096, bias=True)
                )
                (1): Dropout(p=0.0, inplace=False)
                (2): Linear(in_features=2048, out_features=512, bias=True)
              )
            )
            (2): Residual()
          )
          (10): ModuleList(
            (0): ModuleList(
              (0): SimpleRMSNorm()
              (1-2): 2 x None
            )
            (1): Attention(
              (to_q): Linear(in_features=512, out_features=512, bias=False)
              (to_k): Linear(in_features=512, out_features=512, bias=False)
              (to_v): Linear(in_features=512, out_features=512, bias=False)
              (split_q_heads): Rearrange('b n (h d) -> b h n d', h=8)
              (split_k_heads): Rearrange('b n (h d) -> b h n d', d=64)
              (split_v_heads): Rearrange('b n (h d) -> b h n d', d=64)
              (merge_heads): Rearrange('b h n d -> b n (h d)')
              (attend): Attend(
                (attn_dropout): Dropout(p=0.0, inplace=False)
              )
              (to_out): Linear(in_features=512, out_features=512, bias=False)
            )
            (2): Residual()
          )
          (11): ModuleList(
            (0): ModuleList(
              (0): SimpleRMSNorm()
              (1-2): 2 x None
            )
            (1): FeedForward(
              (ff): Sequential(
                (0): GLU(
                  (act): SiLU()
                  (proj): Linear(in_features=512, out_features=4096, bias=True)
                )
                (1): Dropout(p=0.0, inplace=False)
                (2): Linear(in_features=2048, out_features=512, bias=True)
              )
            )
            (2): Residual()
          )
          (12): ModuleList(
            (0): ModuleList(
              (0): SimpleRMSNorm()
              (1-2): 2 x None
            )
            (1): Attention(
              (to_q): Linear(in_features=512, out_features=512, bias=False)
              (to_k): Linear(in_features=512, out_features=512, bias=False)
              (to_v): Linear(in_features=512, out_features=512, bias=False)
              (split_q_heads): Rearrange('b n (h d) -> b h n d', h=8)
              (split_k_heads): Rearrange('b n (h d) -> b h n d', d=64)
              (split_v_heads): Rearrange('b n (h d) -> b h n d', d=64)
              (merge_heads): Rearrange('b h n d -> b n (h d)')
              (attend): Attend(
                (attn_dropout): Dropout(p=0.0, inplace=False)
              )
              (to_out): Linear(in_features=512, out_features=512, bias=False)
            )
            (2): Residual()
          )
          (13): ModuleList(
            (0): ModuleList(
              (0): SimpleRMSNorm()
              (1-2): 2 x None
            )
            (1): FeedForward(
              (ff): Sequential(
                (0): GLU(
                  (act): SiLU()
                  (proj): Linear(in_features=512, out_features=4096, bias=True)
                )
                (1): Dropout(p=0.0, inplace=False)
                (2): Linear(in_features=2048, out_features=512, bias=True)
              )
            )
            (2): Residual()
          )
          (14): ModuleList(
            (0): ModuleList(
              (0): SimpleRMSNorm()
              (1-2): 2 x None
            )
            (1): Attention(
              (to_q): Linear(in_features=512, out_features=512, bias=False)
              (to_k): Linear(in_features=512, out_features=512, bias=False)
              (to_v): Linear(in_features=512, out_features=512, bias=False)
              (split_q_heads): Rearrange('b n (h d) -> b h n d', h=8)
              (split_k_heads): Rearrange('b n (h d) -> b h n d', d=64)
              (split_v_heads): Rearrange('b n (h d) -> b h n d', d=64)
              (merge_heads): Rearrange('b h n d -> b n (h d)')
              (attend): Attend(
                (attn_dropout): Dropout(p=0.0, inplace=False)
              )
              (to_out): Linear(in_features=512, out_features=512, bias=False)
            )
            (2): Residual()
          )
          (15): ModuleList(
            (0): ModuleList(
              (0): SimpleRMSNorm()
              (1-2): 2 x None
            )
            (1): FeedForward(
              (ff): Sequential(
                (0): GLU(
                  (act): SiLU()
                  (proj): Linear(in_features=512, out_features=4096, bias=True)
                )
                (1): Dropout(p=0.0, inplace=False)
                (2): Linear(in_features=2048, out_features=512, bias=True)
              )
            )
            (2): Residual()
          )
        )
        (layer_integrators): ModuleList(
          (0-15): 16 x None
        )
        (rotary_pos_emb): RotaryEmbedding()
        (adaptive_mlp): Identity()
        (final_norm): SimpleRMSNorm()
        (skip_combines): ModuleList(
          (0-15): 16 x None
        )
      )
      (to_logits): Linear(in_features=512, out_features=5902, bias=False)
    )
  )
)
Critic(
  (model): DecoderTransformer(
    (decoder): TransformerWrapper(
      (token_emb): TokenEmbedding(
        (emb): Embedding(5902, 512)
      )
      (post_emb_norm): Identity()
      (emb_dropout): Dropout(p=0.0, inplace=False)
      (project_emb): Identity()
      (attn_layers): Decoder(
        (layers): ModuleList(
          (0): ModuleList(
            (0): ModuleList(
              (0): SimpleRMSNorm()
              (1-2): 2 x None
            )
            (1): Attention(
              (to_q): Linear(in_features=512, out_features=512, bias=False)
              (to_k): Linear(in_features=512, out_features=512, bias=False)
              (to_v): Linear(in_features=512, out_features=512, bias=False)
              (split_q_heads): Rearrange('b n (h d) -> b h n d', h=8)
              (split_k_heads): Rearrange('b n (h d) -> b h n d', d=64)
              (split_v_heads): Rearrange('b n (h d) -> b h n d', d=64)
              (merge_heads): Rearrange('b h n d -> b n (h d)')
              (attend): Attend(
                (attn_dropout): Dropout(p=0.0, inplace=False)
              )
              (to_out): Linear(in_features=512, out_features=512, bias=False)
            )
            (2): Residual()
          )
          (1): ModuleList(
            (0): ModuleList(
              (0): SimpleRMSNorm()
              (1-2): 2 x None
            )
            (1): FeedForward(
              (ff): Sequential(
                (0): GLU(
                  (act): SiLU()
                  (proj): Linear(in_features=512, out_features=4096, bias=True)
                )
                (1): Dropout(p=0.0, inplace=False)
                (2): Linear(in_features=2048, out_features=512, bias=True)
              )
            )
            (2): Residual()
          )
          (2): ModuleList(
            (0): ModuleList(
              (0): SimpleRMSNorm()
              (1-2): 2 x None
            )
            (1): Attention(
              (to_q): Linear(in_features=512, out_features=512, bias=False)
              (to_k): Linear(in_features=512, out_features=512, bias=False)
              (to_v): Linear(in_features=512, out_features=512, bias=False)
              (split_q_heads): Rearrange('b n (h d) -> b h n d', h=8)
              (split_k_heads): Rearrange('b n (h d) -> b h n d', d=64)
              (split_v_heads): Rearrange('b n (h d) -> b h n d', d=64)
              (merge_heads): Rearrange('b h n d -> b n (h d)')
              (attend): Attend(
                (attn_dropout): Dropout(p=0.0, inplace=False)
              )
              (to_out): Linear(in_features=512, out_features=512, bias=False)
            )
            (2): Residual()
          )
          (3): ModuleList(
            (0): ModuleList(
              (0): SimpleRMSNorm()
              (1-2): 2 x None
            )
            (1): FeedForward(
              (ff): Sequential(
                (0): GLU(
                  (act): SiLU()
                  (proj): Linear(in_features=512, out_features=4096, bias=True)
                )
                (1): Dropout(p=0.0, inplace=False)
                (2): Linear(in_features=2048, out_features=512, bias=True)
              )
            )
            (2): Residual()
          )
          (4): ModuleList(
            (0): ModuleList(
              (0): SimpleRMSNorm()
              (1-2): 2 x None
            )
            (1): Attention(
              (to_q): Linear(in_features=512, out_features=512, bias=False)
              (to_k): Linear(in_features=512, out_features=512, bias=False)
              (to_v): Linear(in_features=512, out_features=512, bias=False)
              (split_q_heads): Rearrange('b n (h d) -> b h n d', h=8)
              (split_k_heads): Rearrange('b n (h d) -> b h n d', d=64)
              (split_v_heads): Rearrange('b n (h d) -> b h n d', d=64)
              (merge_heads): Rearrange('b h n d -> b n (h d)')
              (attend): Attend(
                (attn_dropout): Dropout(p=0.0, inplace=False)
              )
              (to_out): Linear(in_features=512, out_features=512, bias=False)
            )
            (2): Residual()
          )
          (5): ModuleList(
            (0): ModuleList(
              (0): SimpleRMSNorm()
              (1-2): 2 x None
            )
            (1): FeedForward(
              (ff): Sequential(
                (0): GLU(
                  (act): SiLU()
                  (proj): Linear(in_features=512, out_features=4096, bias=True)
                )
                (1): Dropout(p=0.0, inplace=False)
                (2): Linear(in_features=2048, out_features=512, bias=True)
              )
            )
            (2): Residual()
          )
          (6): ModuleList(
            (0): ModuleList(
              (0): SimpleRMSNorm()
              (1-2): 2 x None
            )
            (1): Attention(
              (to_q): Linear(in_features=512, out_features=512, bias=False)
              (to_k): Linear(in_features=512, out_features=512, bias=False)
              (to_v): Linear(in_features=512, out_features=512, bias=False)
              (split_q_heads): Rearrange('b n (h d) -> b h n d', h=8)
              (split_k_heads): Rearrange('b n (h d) -> b h n d', d=64)
              (split_v_heads): Rearrange('b n (h d) -> b h n d', d=64)
              (merge_heads): Rearrange('b h n d -> b n (h d)')
              (attend): Attend(
                (attn_dropout): Dropout(p=0.0, inplace=False)
              )
              (to_out): Linear(in_features=512, out_features=512, bias=False)
            )
            (2): Residual()
          )
          (7): ModuleList(
            (0): ModuleList(
              (0): SimpleRMSNorm()
              (1-2): 2 x None
            )
            (1): FeedForward(
              (ff): Sequential(
                (0): GLU(
                  (act): SiLU()
                  (proj): Linear(in_features=512, out_features=4096, bias=True)
                )
                (1): Dropout(p=0.0, inplace=False)
                (2): Linear(in_features=2048, out_features=512, bias=True)
              )
            )
            (2): Residual()
          )
          (8): ModuleList(
            (0): ModuleList(
              (0): SimpleRMSNorm()
              (1-2): 2 x None
            )
            (1): Attention(
              (to_q): Linear(in_features=512, out_features=512, bias=False)
              (to_k): Linear(in_features=512, out_features=512, bias=False)
              (to_v): Linear(in_features=512, out_features=512, bias=False)
              (split_q_heads): Rearrange('b n (h d) -> b h n d', h=8)
              (split_k_heads): Rearrange('b n (h d) -> b h n d', d=64)
              (split_v_heads): Rearrange('b n (h d) -> b h n d', d=64)
              (merge_heads): Rearrange('b h n d -> b n (h d)')
              (attend): Attend(
                (attn_dropout): Dropout(p=0.0, inplace=False)
              )
              (to_out): Linear(in_features=512, out_features=512, bias=False)
            )
            (2): Residual()
          )
          (9): ModuleList(
            (0): ModuleList(
              (0): SimpleRMSNorm()
              (1-2): 2 x None
            )
            (1): FeedForward(
              (ff): Sequential(
                (0): GLU(
                  (act): SiLU()
                  (proj): Linear(in_features=512, out_features=4096, bias=True)
                )
                (1): Dropout(p=0.0, inplace=False)
                (2): Linear(in_features=2048, out_features=512, bias=True)
              )
            )
            (2): Residual()
          )
          (10): ModuleList(
            (0): ModuleList(
              (0): SimpleRMSNorm()
              (1-2): 2 x None
            )
            (1): Attention(
              (to_q): Linear(in_features=512, out_features=512, bias=False)
              (to_k): Linear(in_features=512, out_features=512, bias=False)
              (to_v): Linear(in_features=512, out_features=512, bias=False)
              (split_q_heads): Rearrange('b n (h d) -> b h n d', h=8)
              (split_k_heads): Rearrange('b n (h d) -> b h n d', d=64)
              (split_v_heads): Rearrange('b n (h d) -> b h n d', d=64)
              (merge_heads): Rearrange('b h n d -> b n (h d)')
              (attend): Attend(
                (attn_dropout): Dropout(p=0.0, inplace=False)
              )
              (to_out): Linear(in_features=512, out_features=512, bias=False)
            )
            (2): Residual()
          )
          (11): ModuleList(
            (0): ModuleList(
              (0): SimpleRMSNorm()
              (1-2): 2 x None
            )
            (1): FeedForward(
              (ff): Sequential(
                (0): GLU(
                  (act): SiLU()
                  (proj): Linear(in_features=512, out_features=4096, bias=True)
                )
                (1): Dropout(p=0.0, inplace=False)
                (2): Linear(in_features=2048, out_features=512, bias=True)
              )
            )
            (2): Residual()
          )
          (12): ModuleList(
            (0): ModuleList(
              (0): SimpleRMSNorm()
              (1-2): 2 x None
            )
            (1): Attention(
              (to_q): Linear(in_features=512, out_features=512, bias=False)
              (to_k): Linear(in_features=512, out_features=512, bias=False)
              (to_v): Linear(in_features=512, out_features=512, bias=False)
              (split_q_heads): Rearrange('b n (h d) -> b h n d', h=8)
              (split_k_heads): Rearrange('b n (h d) -> b h n d', d=64)
              (split_v_heads): Rearrange('b n (h d) -> b h n d', d=64)
              (merge_heads): Rearrange('b h n d -> b n (h d)')
              (attend): Attend(
                (attn_dropout): Dropout(p=0.0, inplace=False)
              )
              (to_out): Linear(in_features=512, out_features=512, bias=False)
            )
            (2): Residual()
          )
          (13): ModuleList(
            (0): ModuleList(
              (0): SimpleRMSNorm()
              (1-2): 2 x None
            )
            (1): FeedForward(
              (ff): Sequential(
                (0): GLU(
                  (act): SiLU()
                  (proj): Linear(in_features=512, out_features=4096, bias=True)
                )
                (1): Dropout(p=0.0, inplace=False)
                (2): Linear(in_features=2048, out_features=512, bias=True)
              )
            )
            (2): Residual()
          )
          (14): ModuleList(
            (0): ModuleList(
              (0): SimpleRMSNorm()
              (1-2): 2 x None
            )
            (1): Attention(
              (to_q): Linear(in_features=512, out_features=512, bias=False)
              (to_k): Linear(in_features=512, out_features=512, bias=False)
              (to_v): Linear(in_features=512, out_features=512, bias=False)
              (split_q_heads): Rearrange('b n (h d) -> b h n d', h=8)
              (split_k_heads): Rearrange('b n (h d) -> b h n d', d=64)
              (split_v_heads): Rearrange('b n (h d) -> b h n d', d=64)
              (merge_heads): Rearrange('b h n d -> b n (h d)')
              (attend): Attend(
                (attn_dropout): Dropout(p=0.0, inplace=False)
              )
              (to_out): Linear(in_features=512, out_features=512, bias=False)
            )
            (2): Residual()
          )
          (15): ModuleList(
            (0): ModuleList(
              (0): SimpleRMSNorm()
              (1-2): 2 x None
            )
            (1): FeedForward(
              (ff): Sequential(
                (0): GLU(
                  (act): SiLU()
                  (proj): Linear(in_features=512, out_features=4096, bias=True)
                )
                (1): Dropout(p=0.0, inplace=False)
                (2): Linear(in_features=2048, out_features=512, bias=True)
              )
            )
            (2): Residual()
          )
        )
        (layer_integrators): ModuleList(
          (0-15): 16 x None
        )
        (rotary_pos_emb): RotaryEmbedding()
        (adaptive_mlp): Identity()
        (final_norm): SimpleRMSNorm()
        (skip_combines): ModuleList(
          (0-15): 16 x None
        )
      )
      (to_logits): Linear(in_features=512, out_features=1, bias=False)
    )
  )
)
2026-04-16 17:27:20 - realchords - INFO - Loading model from /hpcwork/thes2192/realchords/logs/my_logs/enc_dec_base_chord_3_datasets/step=13000.ckpt
=== Loading Weighted Joint Dataset ===
Datasets: hooktheory, pop909, nottingham
Weights: [0.6, 0.3, 0.1]
Split: train
Augmentation: True

Loading hooktheory (weight: 60.0%)...
2026-04-16 17:27:20 - realchords - INFO - Data cache dir: /rwthfs/rz/cluster/home/yh522379/realchords-pytorch/data/cache/hooktheory
…
